…
          "base_uri": "https://localhost:8080/"
        },
        "id": "PIenAA57WOxB",
        "outputId": "04f2c882-0606-416d-fdbb-11a3dd496918"
      },
      "outputs": [
        {
          "output_type": "stream",
          "name": "stdout",
          "text": [
            "Model: \"sequential_35\"\n",
            "_________________________________________________________________\n",
            " Layer (type)                Output Shape              Param #   \n",
            "=================================================================\n",
            " conv2d_140 (Conv2D)         (None, 8, 4, 8)           40        \n",
            "                                                                 \n",
            " batch_normalization_143 (Ba  (None, 8, 4, 8)          32        \n",
            " tchNormalization)                                               \n",
            "                                                                 \n",
            " conv2d_141 (Conv2D)         (None, 8, 4, 16)          528       \n",
            "                                                                 \n",
            " batch_normalization_144 (Ba  (None, 8, 4, 16)         64        \n",
            " tchNormalization)                                               \n",
            "                                                                 \n",
            " conv2d_142 (Conv2D)         (None, 8, 4, 32)          4640      \n",
            "                                                                 \n",
            " batch_normalization_145 (Ba  (None, 8, 4, 32)         128       \n",
            " tchNormalization)                                               \n",
            "                                                                 \n",
            " conv2d_143 (Conv2D)         (None, 8, 4, 32)          9248      \n",
            "                                                                 \n",
            " batch_normalization_146 (Ba  (None, 8, 4, 32)         128       \n",
            " tchNormalization)                                               \n",
            "                                                                 \n",
            " global_average_pooling2d_35  (None, 32)               0         \n",
            "  (GlobalAveragePooling2D)                                       \n",
            "                                                                 \n",
            " flatten_35 (Flatten)        (None, 32)                0         \n",
            "                                                                 \n",
            " dense_72 (Dense)            (None, 32)                1056      \n",
            "                                                                 \n",
            " batch_normalization_147 (Ba  (None, 32)               128       \n",
            " tchNormalization)                                               \n",
            "                                                                 \n",
            " dense_73 (Dense)            (None, 16)                528       \n",
            "                                                                 \n",
            " batch_normalization_148 (Ba  (None, 16)               64        \n",
            " tchNormalization)                                               \n",
            "                                                                 \n",
            " dense_74 (Dense)            (None, 8)                 136       \n",
            "                                                                 \n",
            " batch_normalization_149 (Ba  (None, 8)                32        \n",
            " tchNormalization)                                               \n",
            "                                                                 \n",
            " dense_75 (Dense)            (None, 4)                 36        \n",
            "                                                                 \n",
            "=================================================================\n",
            "Total params: 16,788\n",
            "Trainable params: 16,500\n",
            "Non-trainable params: 288\n",
            "_________________________________________________________________\n"
          ]
        }
…
